…
    <name>young</name>
    
  </author>
  
  <generator uri="https://hexo.io/">Hexo</generator>
  
  <entry>
    <title></title>
    <link href="https://youngyyp.github.io/2023/05/31/%E8%AE%A1%E7%AE%97%E6%9C%BA%E8%A7%86%E8%A7%89/test_time_adaptation/resnext-29%E7%BB%93%E6%9E%84/"/>
    <id>https://youngyyp.github.io/2023/05/31/%E8%AE%A1%E7%AE%97%E6%9C%BA%E8%A7%86%E8%A7%89/test_time_adaptation/resnext-29%E7%BB%93%E6%9E%84/</id>
    <published>2023-05-31T02:43:26.405Z</published>
    <updated>2023-05-31T02:43:26.413Z</updated>
    
    <content type="html"><![CDATA[<p>CifarResNeXt(<br>  (conv_1_3x3): Conv2d(3, 64, kernel_size=(3, 3), stride=(1, 1), padding=(1, 1), bias=False)<br>  (bn_1): BatchNorm2d(64, eps=1e-05, momentum=0.1, affine=True, track_running_stats=True)<br>  (stage_1): Sequential(<br>    (0): ResNeXtBottleneck(<br>      (conv_reduce): Conv2d(64, 128, kernel_size=(1, 1), stride=(1, 1), bias=False)<br>      (bn_reduce): BatchNorm2d(128, eps=1e-05, momentum=0.1, affine=True, track_running_stats=True)<br>      (conv_conv): Conv2d(128, 128, kernel_size=(3, 3), stride=(1, 1), padding=(1, 1), groups=4, bias=False)<br>      (bn): BatchNorm2d(128, eps=1e-05, momentum=0.1, affine=True, track_running_stats=True)<br>      (conv_expand): Conv2d(128, 256, kernel_size=(1, 1), stride=(1, 1), bias=False)<br>      (bn_expand): BatchNorm2d(256, eps=1e-05, momentum=0.1, affine=True, track_running_stats=True)<br>      (downsample): Sequential(<br>        (0): Conv2d(64, 256, kernel_size=(1, 1), stride=(1, 1), bias=False)<br>        (1): BatchNorm2d(256, eps=1e-05, momentum=0.1, affine=True, track_running_stats=True)<br>      )<br>    )<br>    (1): ResNeXtBottleneck(<br>      (conv_reduce): Conv2d(256, 128, kernel_size=(1, 1), stride=(1, 1), bias=False)<br>      (bn_reduce): BatchNorm2d(128, eps=1e-05, momentum=0.1, affine=True, track_running_stats=True)<br>      (conv_conv): Conv2d(128, 128, kernel_size=(3, 3), stride=(1, 1), padding=(1, 1), groups=4, bias=False)<br>      (bn): BatchNorm2d(128, eps=1e-05, momentum=0.1, affine=True, track_running_stats=True)<br>      (conv_expand): Conv2d(128, 256, kernel_size=(1, 1), stride=(1, 1), bias=False)<br>      (bn_expand): BatchNorm2d(256, eps=1e-05, momentum=0.1, affine=True, track_running_stats=True)<br>    )<br>    (2): ResNeXtBottleneck(<br>      (conv_reduce): Conv2d(256, 128, kernel_size=(1, 1), stride=(1, 1), bias=False)<br>      (bn_reduce): BatchNorm2d(128, eps=1e-05, momentum=0.1, affine=True, track_running_stats=True)<br>      (conv_conv): Conv2d(128, 128, kernel_size=(3, 3), stride=(1, 1), padding=(1, 1), groups=4, bias=False)<br>      (bn): BatchNorm2d(128, eps=1e-05, momentum=0.1, affine=True, track_running_stats=True)<br>      (conv_expand): Conv2d(128, 256, kernel_size=(1, 1), stride=(1, 1), bias=False)<br>      (bn_expand): BatchNorm2d(256, eps=1e-05, momentum=0.1, affine=True, track_running_stats=True)<br>    )<br>  )<br>  (stage_2): Sequential(<br>    (0): ResNeXtBottleneck(<br>      (conv_reduce): Conv2d(256, 256, kernel_size=(1, 1), stride=(1, 1), bias=False)<br>      (bn_reduce): BatchNorm2d(256, eps=1e-05, momentum=0.1, affine=True, track_running_stats=True)<br>      (conv_conv): Conv2d(256, 256, kernel_size=(3, 3), stride=(2, 2), padding=(1, 1), groups=4, bias=False)<br>      (bn): BatchNorm2d(256, eps=1e-05, momentum=0.1, affine=True, track_running_stats=True)<br>      (conv_expand): Conv2d(256, 512, kernel_size=(1, 1), stride=(1, 1), bias=False)<br>      (bn_expand): BatchNorm2d(512, eps=1e-05, momentum=0.1, affine=True, track_running_stats=True)<br>      (downsample): Sequential(<br>        (0): Conv2d(256, 512, kernel_size=(1, 1), stride=(2, 2), bias=False)<br>        (1): BatchNorm2d(512, eps=1e-05, momentum=0.1, affine=True, track_running_stats=True)<br>      )<br>    )<br>    (1): ResNeXtBottleneck(<br>      (conv_reduce): Conv2d(512, 256, kernel_size=(1, 1), stride=(1, 1), bias=False)<br>      (bn_reduce): BatchNorm2d(256, eps=1e-05, momentum=0.1, affine=True, track_running_stats=True)<br>      (conv_conv): Conv2d(256, 256, kernel_size=(3, 3), stride=(1, 1), padding=(1, 1), groups=4, bias=False)<br>      (bn): BatchNorm2d(256, eps=1e-05, momentum=0.1, affine=True, track_running_stats=True)<br>      (conv_expand): Conv2d(256, 512, kernel_size=(1, 1), stride=(1, 1), bias=False)<br>      (bn_expand): BatchNorm2d(512, eps=1e-05, momentum=0.1, affine=True, track_running_stats=True)<br>    )<br>    (2): ResNeXtBottleneck(<br>      (conv_reduce): Conv2d(512, 256, kernel_size=(1, 1), stride=(1, 1), bias=False)<br>      (bn_reduce): BatchNorm2d(256, eps=1e-05, momentum=0.1, affine=True, track_running_stats=True)<br>      (conv_conv): Conv2d(256, 256, kernel_size=(3, 3), stride=(1, 1), padding=(1, 1), groups=4, bias=False)<br>      (bn): BatchNorm2d(256, eps=1e-05, momentum=0.1, affine=True, track_running_stats=True)<br>      (conv_expand): Conv2d(256, 512, kernel_size=(1, 1), stride=(1, 1), bias=False)<br>      (bn_expand): BatchNorm2d(512, eps=1e-05, momentum=0.1, affine=True, track_running_stats=True)<br>    )<br>  )<br>  (stage_3): Sequential(<br>    (0): ResNeXtBottleneck(<br>      (conv_reduce): Conv2d(512, 512, kernel_size=(1, 1), stride=(1, 1), bias=False)<br>      (bn_reduce): BatchNorm2d(512, eps=1e-05, momentum=0.1, affine=True, track_running_stats=True)<br>      (conv_conv): Conv2d(512, 512, kernel_size=(3, 3), stride=(2, 2), padding=(1, 1), groups=4, bias=False)<br>      (bn): BatchNorm2d(512, eps=1e-05, momentum=0.1, affine=True, track_running_stats=True)<br>      (conv_expand): Conv2d(512, 1024, kernel_size=(1, 1), stride=(1, 1), bias=False)<br>      (bn_expand): BatchNorm2d(1024, eps=1e-05, momentum=0.1, affine=True, track_running_stats=True)<br>      (downsample): Sequential(<br>        (0): Conv2d(512, 1024, kernel_size=(1, 1), stride=(2, 2), bias=False)<br>        (1): BatchNorm2d(1024, eps=1e-05, momentum=0.1, affine=True, track_running_stats=True)<br>      )<br>    )<br>    (1): ResNeXtBottleneck(<br>      (conv_reduce): Conv2d(1024, 512, kernel_size=(1, 1), stride=(1, 1), bias=False)<br>      (bn_reduce): BatchNorm2d(512, eps=1e-05, momentum=0.1, affine=True, track_running_stats=True)<br>      (conv_conv): Conv2d(512, 512, kernel_size=(3, 3), stride=(1, 1), padding=(1, 1), groups=4, bias=False)<br>      (bn): BatchNorm2d(512, eps=1e-05, momentum=0.1, affine=True, track_running_stats=True)<br>      (conv_expand): Conv2d(512, 1024, kernel_size=(1, 1), stride=(1, 1), bias=False)<br>      (bn_expand): BatchNorm2d(1024, eps=1e-05, momentum=0.1, affine=True, track_running_stats=True)<br>    )<br>    (2): ResNeXtBottleneck(<br>      (conv_reduce): Conv2d(1024, 512, kernel_size=(1, 1), stride=(1, 1), bias=False)<br>      (bn_reduce): BatchNorm2d(512, eps=1e-05, momentum=0.1, affine=True, track_running_stats=True)<br>      (conv_conv): Conv2d(512, 512, kernel_size=(3, 3), stride=(1, 1), padding=(1, 1), groups=4, bias=False)<br>      (bn): BatchNorm2d(512, eps=1e-05, momentum=0.1, affine=True, track_running_stats=True)<br>      (conv_expand): Conv2d(512, 1024, kernel_size=(1, 1), stride=(1, 1), bias=False)<br>      (bn_expand): BatchNorm2d(1024, eps=1e-05, momentum=0.1, affine=True, track_running_stats=True)<br>    )<br>  )<br>  (avgpool): AvgPool2d(kernel_size=8, stride=8, padding=0)<br>  (classifier): Linear(in_features=1024, out_features=100, bias=True)<br>)</p><p>gaussian_noise<br>Epoch 1/1 (12s):        error: 39.90        mean_entropy: 1.3898<br>shot_noise<br>Epoch 1/1 (8s):         error: 33.59        mean_entropy: 1.0661<br>impulse_noise<br>Epoch 1/1 (8s):         error: 36.14        mean_entropy: 1.1230<br>defocus_blur<br>Epoch 1/1 (8s):         error: 27.31        mean_entropy: 0.7297<br>glass
…
mean_entropy: 0.9701<br>brightness<br>Epoch 1/1 (8s):         error: 24.66        mean_entropy: 0.6118<br>contrast<br>Epoch 1/1 (8s):         error: 28.08        mean_entropy: 0.6770<br>elastic_transform<br>Epoch 1/1 (8s):         error: 32.25        mean_entropy: 0.8842<br>pixelate<br>Epoch 1/1 (8s):         error: 27.83        mean_entropy: 0.7012<br>jpeg_compression<br>Epoch 1/1 (8s):         error: 36.49        mean_entropy: 0.9407<br>[23/05/22 15:55:41] [cifar100c_online_adapter.py:  143]: mean error %: 31.7513%</p>]]></content>
    
    
    <summary type="html">CifarResNeXt(
(conv_1_3x3): Conv2d(3, 64, kernel_size=(3, 3), stride=(1, 1), padding=(1, 1), bias=False)
(bn_1): BatchNorm2d(64, eps=1e-05, momentum=0.1, affine=True, track_running_stats=True)
(stage_1): Sequential(
(0): ResNeXtBottleneck(
(conv_reduce): Conv2d(64, 128, kernel_size=(1, 1), stride=(1</summary>
    
    
    
    
  </entry>
  
  <entry>
    <title></title>
    <link href="https://youngyyp.github.io/2023/05/31/%E8%AE%A1%E7%AE%97%E6%9C%BA%E8%A7%86%E8%A7%89/test_time_adaptation/resnet50-imagenet/"/>
    <id>https://youngyyp.github.io/2023/05/31/%E8%AE%A1%E7%AE%97%E6%9C%BA%E8%A7%86%E8%A7%89/test_time_adaptation/resnet50-imagenet/</id>
    <published>2023-05-31T02:43:25.526Z</published>
    <updated>2023-05-31T02:43:25.562Z</updated>
    
    <content type="html"><![CDATA[<p>Sequential(<br>  (normalize): ImageNormalizer(mean=tensor([0.4850, 0.4560, 0.4060], device=’cuda:0’), std=tensor([0.2290, 0.2240, 0.2250], device=’cuda:0’))<br>  (model): ResNet(<br>    (conv1): Conv2d(3, 64, kernel_size=(7, 7), stride=(2, 2), padding=(3, 3), bias=False)<br>    (bn1): BatchNorm2d(64, eps=1e-05, momentum=0.1, affine=True, track_running_stats=True)<br>    (relu): ReLU(inplace=True)<br>    (maxpool): MaxPool2d(kernel_size=3, stride=2, padding=1, dilation=1, ceil_mode=False)<br>    (layer1): Sequential(<br>      (0): Bottleneck(<br>        (conv1): Conv2d(64, 64, kernel_size=(1, 1), stride=(1, 1), bias=False)<br>        (bn1): BatchNorm2d(64, eps=1e-05, momentum=0.1, affine=True, track_running_stats=True)<br>        (conv2): Conv2d(64, 64, kernel_size=(3, 3), stride=(1, 1), padding=(1, 1), bias=False)<br>        (bn2): BatchNorm2d(64, eps=1e-05, momentum=0.1, affine=True, track_running_stats=True)<br>        (conv3): Conv2d(64, 256, kernel_size=(1, 1), stride=(1, 1), bias=False)<br>        (bn3): BatchNorm2d(256, eps=1e-05, momentum=0.1, affine=True, track_running_stats=True)<br>        (relu): ReLU(inplace=True)<br>        (downsample): Sequential(<br>          (0): Conv2d(64, 256, kernel_size=(1, 1), stride=(1, 1), bias=False)<br>          (1): BatchNorm2d(256, eps=1e-05, momentum=0.1, affine=True, track_running_stats=True)<br>        )<br>      )<br>      (1): Bottleneck(<br>        (conv1): Conv2d(256, 64, kernel_size=(1, 1), stride=(1, 1), bias=False)<br>        (bn1): BatchNorm2d(64, eps=1e-05, momentum=0.1, affine=True, track_running_stats=True)<br>        (conv2): Conv2d(64, 64, kernel_size=(3, 3), stride=(1, 1), padding=(1, 1), bias=False)<br>        (bn2): BatchNorm2d(64, eps=1e-05, momentum=0.1, affine=True, track_running_stats=True)<br>        (conv3): Conv2d(64, 256, kernel_size=(1, 1), stride=(1, 1), bias=False)<br>        (bn3): BatchNorm2d(256, eps=1e-05, momentum=0.1, affine=True, track_running_stats=True)<br>        (relu): ReLU(inplace=True)<br>      )<br>      (2): Bottleneck(<br>        (conv1): Conv2d(256, 64, kernel_size=(1, 1), stride=(1, 1), bias=False)<br>        (bn1): BatchNorm2d(64, eps=1e-05, momentum=0.1, affine=True, track_running_stats=True)<br>        (conv2): Conv2d(64, 64, kernel_size=(3, 3), stride=(1, 1), padding=(1, 1), bias=False)<br>        (bn2): BatchNorm2d(64, eps=1e-05, momentum=0.1, affine=True, track_running_stats=True)<br>        (conv3): Conv2d(64, 256, kernel_size=(1, 1), stride=(1, 1), bias=False)<br>        (bn3): BatchNorm2d(256, eps=1e-05, momentum=0.1, affine=True, track_running_stats=True)<br>        (relu): ReLU(inplace=True)<br>      )<br>    )<br>    (layer2): Sequential(<br>      (0): Bottleneck(<br>        (conv1): Conv2d(256, 128, kernel_size=(1, 1), stride=(1, 1), bias=False)<br>        (bn1): BatchNorm2d(128, eps=1e-05, momentum=0.1, affine=True, track_running_stats=True)<br>        (conv2): Conv2d(128, 128, kernel_size=(3, 3), stride=(2, 2), padding=(1, 1), bias=False)<br>        (bn2): BatchNorm2d(128, eps=1e-05, momentum=0.1, affine=True, track_running_stats=True)<br>        (conv3): Conv2d(128, 512, kernel_size=(1, 1), stride=(1, 1), bias=False)<br>        (bn3): BatchNorm2d(512, eps=1e-05, momentum=0.1, affine=True, track_running_stats=True)<br>        (relu): ReLU(inplace=True)<br>        (downsample): Sequential(<br>          (0): Conv2d(256, 512, kernel_size=(1, 1), stride=(2, 2), bias=False)<br>          (1): BatchNorm2d(512, eps=1e-05, momentum=0.1, affine=True, track_running_stats=True)<br>        )<br>      )<br>      (1): Bottleneck(<br>        (conv1): Conv2d(512, 128, kernel_size=(1, 1), stride=(1, 1), bias=False)<br>        (bn1): BatchNorm2d(128, eps=1e-05, momentum=0.1, affine=True, track_running_stats=True)<br>        (conv2): Conv2d(128, 128, kernel_size=(3, 3), stride=(1, 1), padding=(1, 1), bias=False)<br>        (bn2): BatchNorm2d(128, eps=1e-05, momentum=0.1, affine=True, track_running_stats=True)<br>        (conv3): Conv2d(128, 512, kernel_size=(1, 1), stride=(1, 1), bias=False)<br>        (bn3): BatchNorm2d(512, eps=1e-05, momentum=0.1, affine=True, track_running_stats=True)<br>        (relu): ReLU(inplace=True)<br>      )<br>      (2): Bottleneck(<br>        (conv1): Conv2d(512, 128, kernel_size=(1, 1), stride=(1, 1), bias=False)<br>        (bn1): BatchNorm2d(128, eps=1e-05, momentum=0.1, affine=True, track_running_stats=True)<br>        (conv2): Conv2d(128, 128, kernel_size=(3, 3), stride=(1, 1), padding=(1, 1), bias=False)<br>        (bn2): BatchNorm2d(128, eps=1e-05, momentum=0.1, affine=True, track_running_stats=True)<br>        (conv3): Conv2d(128, 512, kernel_size=(1, 1), stride=(1, 1), bias=False)<br>        (bn3): BatchNorm2d(512, eps=1e-05, momentum=0.1, affine=True, track_running_stats=True)<br>        (relu): ReLU(inplace=True)<br>      )<br>      (3): Bottleneck(<br>        (conv1): Conv2d(512, 128, kernel_size=(1, 1), stride=(1, 1), bias=False)<br>        (bn1): BatchNorm2d(128, eps=1e-05, momentum=0.1, affine=True, track_running_stats=True)<br>        (conv2): Conv2d(128, 128, kernel_size=(3, 3), stride=(1, 1), padding=(1, 1), bias=False)<br>        (bn2): BatchNorm2d(128, eps=1e-05, momentum=0.1, affine=True, track_running_stats=True)<br>        (conv3): Conv2d(128, 512, kernel_size=(1, 1), stride=(1, 1), bias=False)<br>        (bn3): BatchNorm2d(512, eps=1e-05, momentum=0.1, affine=True, track_running_stats=True)<br>        (relu): ReLU(inplace=True)<br>      )<br>    )<br>    (layer3): Sequential(<br>      (0): Bottleneck(<br>        (conv1): Conv2d(512, 256, kernel_size=(1, 1), stride=(1, 1), bias=False)<br>        (bn1): BatchNorm2d(256, eps=1e-05, momentum=0.1, affine=True, track_running_stats=True)<br>        (conv2): Conv2d(256, 256, kernel_size=(3, 3), stride=(2, 2), padding=(1, 1), bias=False)<br>        (bn2): BatchNorm2d(256, eps=1e-05, momentum=0.1, affine=True, track_running_stats=True)<br>        (conv3): Conv2d(256, 1024, kernel_size=(1, 1), stride=(1, 1), bias=False)<br>        (bn3): BatchNorm2d(1024, eps=1e-05, momentum=0.1, affine=True, track_running_stats=True)<br>        (relu): ReLU(inplace=True)<br>        (downsample): Sequential(<br>          (0): Conv2d(512, 1024, kernel_size=(1, 1), stride=(2, 2), bias=False)<br>          (1): BatchNorm2d(1024, eps=1e-05, momentum=0.1, affine=True, track_running_stats=True)<br>        )<br>      )<br>      (1): Bottleneck(<br>        (conv1): Conv2d(1024, 256, kernel_size=(1, 1), stride=(1, 1), bias=False)<br>        (bn1): BatchNorm2d(256, eps=1e-05, momentum=0.1, affine=True, track_running_stats=True)<br>        (conv2): Conv2d(256, 256, kernel_size=(3, 3), stride=(1, 1), padding=(1, 1), bias=False)<br>        (bn2): BatchNorm2d(256, eps=1e-05, momentum=0.1, affine=True, track_running_stats=True)<br>        (conv3): Conv2d(256, 1024, kernel_size=(1, 1), stride=(1, 1), bias=False)<br>        (bn3): BatchNorm2d(1024, eps=1e-05, momentum=0.1, affine=True, track_running_stats=True)<br>        (relu): ReLU(inplace=True)<br>      )<br>      (2): Bottleneck(<br>        (conv1): Conv2d(1024, 256, kernel_size=(1, 1), stride=(1, 1), bias=False)<br>        (bn1): BatchNorm2d(256, eps=1e-05, momentum=0.1, affine=True, track_running_stats=True)<br>        (conv2): Conv2d(256, 256, kernel_size=(3, 3), stride=(1, 1), padding=(1, 1), bias=False)<br>        (bn2): BatchNorm2d(256, eps=1e-05, momentum=0.1, affine=True, track_running_stats=True)<br>        (conv3): Conv2d(256, 1024, kernel_size=(1, 1), stride=(1, 1), bias=False)<br>        (bn3): BatchNorm2d(1024, eps=1e-05, momentum=0.1, affine=True, track_running_stats=True)<br>        (relu): ReLU(inplace=True)<br>      )<br>      (3): Bottleneck(<br>        (conv1): Conv2d(1024, 256, kernel_size=(1, 1), stride=(1, 1), bias=False)<br>        (bn1): BatchNorm2d(256, eps=1e-05, momentum=0.1, affine=True, track_running_stats=True)<br>        (conv2): Conv2d(256, 256, kernel_size=(3, 3), stride=(1, 1), padding=(1, 1), bias=False)<br>        (bn2): BatchNorm2d(256, eps=1e-05, momentum=0.1, affine=True, track_running_stats=True)<br>        (conv3): Conv2d(256, 1024, kernel_size=(1, 1), stride=(1, 1), bias=False)<br>        (bn3): BatchNorm2d(1024, eps=1e-05, momentum=0.1, affine=True, track_running_stats=True)<br>        (relu): ReLU(inplace=True)<br>      )<br>      (4): Bottleneck(<br>        (conv1): Conv2d(1024, 256, kernel_size=(1, 1), stride=(1, 1), bias=False)<br>        (bn1): BatchNorm2d(256, eps=1e-05, momentum=0.1, affine=True, track_running_stats=True)<br>        (conv2): Conv2d(256, 256, kernel_size=(3, 3), stride=(1, 1), padding=(1, 1), bias=False)<br>        (bn2): BatchNorm2d(256, eps=1e-05, momentum=0.1, affine=True, track_running_stats=True)<br>        (conv3): Conv2d(256, 1024, kernel_size=(1, 1), stride=(1, 1), bias=False)<br>        (bn3): BatchNorm2d(1024, eps=1e-05, momentum=0.1, affine=True, track_running_stats=True)<br>        (relu): ReLU(inplace=True)<br>      )<br>      (5): Bottleneck(<br>        (conv1): Conv2d(1024, 256, kernel_size=(1, 1), stride=(1, 1), bias=False)<br>        (bn1): BatchNorm2d(256, eps=1e-05, momentum=0.1, affine=True, track_running_stats=True)<br>        (conv2): Conv2d(256, 256, kernel_size=(3, 3), stride=(1, 1), padding=(1, 1), bias=False)<br>        (bn2): BatchNorm2d(256, eps=1e-05, momentum=0.1, affine=True, track_running_stats=True)<br>        (conv3): Conv2d(256, 1024, kernel_size=(1, 1), stride=(1, 1), bias=False)<br>        (bn3): BatchNorm2d(1024, eps=1e-05, momentum=0.1, affine=True, track_running_stats=True)<br>        (relu): ReLU(inplace=True)<br>      )<br>    )<br>    (layer4): Sequential(<br>      (0): Bottleneck(<br>        (conv1): Conv2d(1024, 512, kernel_size=(1, 1), stride=(1, 1), bias=False)<br>        (bn1): BatchNorm2d(512, eps=1e-05, momentum=0.1, affine=True, track_running_stats=True)<br>        (conv2): Conv2d(512, 512, kernel_size=(3, 3), stride=(2, 2), padding=(1, 1), bias=False)<br>        (bn2): BatchNorm2d(512, eps=1e-05, momentum=0.1, affine=True, track_running_stats=True)<br>        (conv3): Conv2d(512, 2048, kernel_size=(1, 1), stride=(1, 1), bias=False)<br>        (bn3): BatchNorm2d(2048, eps=1e-05, momentum=0.1, affine=True, track_running_stats=True)<br>        (relu): ReLU(inplace=True)<br>        (downsample): Sequential(<br>          (0): Conv2d(1024, 2048, kernel_size=(1, 1), stride=(2, 2), bias=False)<br>          (1): BatchNorm2d(2048, eps=1e-05, momentum=0.1, affine=True, track_running_stats=True)<br>        )<br>      )<br>      (1): Bottleneck(<br>        (conv1): Conv2d(2048, 512, kernel_size=(1, 1), stride=(1, 1), bias=False)<br>        (bn1): BatchNorm2d(512, eps=1e-05, momentum=0.1, affine=True, track_running_stats=True)<br>        (conv2): Conv2d(512, 512, kernel_size=(3, 3), stride=(1, 1), padding=(1, 1), bias=False)<br>        (bn2): BatchNorm2d(512, eps=1e-05, momentum=0.1, affine=True, track_running_stats=True)<br>        (conv3): Conv2d(512, 2048, kernel_size=(1, 1), stride=(1, 1), bias=False)<br>        (bn3): BatchNorm2d(2048, eps=1e-05, momentum=0.1, affine=True, track_running_stats=True)<br>        (relu): ReLU(inplace=True)<br>      )<br>      (2): Bottleneck(<br>        (conv1): Conv2d(2048, 512, kernel_size=(1, 1), stride=(1, 1), bias=False)<br>        (bn1): BatchNorm2d(512, eps=1e-05, momentum=0.1, affine=True, track_running_stats=True)<br>        (conv2): Conv2d(512, 512, kernel_size=(3, 3), stride=(1, 1), padding=(1, 1), bias=False)<br>        (bn2): BatchNorm2d(512, eps=1e-05, momentum=0.1, affine=True, track_running_stats=True)<br>        (conv3): Conv2d(512, 2048, kernel_size=(1, 1), stride=(1, 1), bias=False)<br>        (bn3): BatchNorm2d(2048, eps=1e-05, momentum=0.1, affine=True, track_running_stats=True)<br>        (relu): ReLU(inplace=True)<br>      )<br>    )<br>    (avgpool): AdaptiveAvgPool2d(output_size=(1, 1))<br>    (fc): Linear(in_features=2048, out_features=1000, bias=True)<br>  )<br>)</p>]]></content>
    
    
    <summary type="html">Sequential(
(normalize): ImageNormalizer(mean=tensor([0.4850, 0.4560, 0.4060], device=’cuda:0’), std=tensor([0.2290, 0.2240, 0.2250], device=’cuda:0’))
(model): ResNet(
(conv1): Conv2d(3, 64, kernel_size=(7, 7), stride=(2, 2), padding=(3, 3), bias=False)
(bn1): BatchNorm2d(64, eps=1e-05, momentum=0.</summary>
    
    
    
    
  </entry>
  
  <entry>
    <title></title>
    <link href="https://youngyyp.github.io/2023/05/31/%E8%AE%A1%E7%AE%97%E6%9C%BA%E8%A7%86%E8%A7%89/test_time_adaptation/%E4%BB%A3%E7%A0%81%E5%8F%82%E8%80%83/"/>
    <id>https://youngyyp.github.io/2023/05/31/%E8%AE%A1%E7%AE%97%E6%9C%BA%E8%A7%86%E8%A7%89/test_time_adaptation/%E4%BB%A3%E7%A0%81%E5%8F%82%E8%80%83/</id>
…
