…
ayer4.0.bn2<br>ext.layer4.0.conv3<br>ext.layer4.0.bn3<br>ext.layer4.0.shortcut<br>ext.layer4.0.shortcut.0<br>ext.layer4.0.shortcut.1<br>ext.layer4.1<br>ext.layer4.1.conv1<br>ext.layer4.1.bn1<br>ext.layer4.1.conv2<br>ext.layer4.1.bn2<br>ext.layer4.1.conv3<br>ext.layer4.1.bn3<br>ext.layer4.1.shortcut<br>ext.layer4.2<br>ext.layer4.2.conv1<br>ext.layer4.2.bn1<br>ext.layer4.2.conv2<br>ext.layer4.2.bn2<br>ext.layer4.2.conv3<br>ext.layer4.2.bn3<br>ext.layer4.2.shortcut<br>ext.avgpool<br>head<br>head.fc</p><p>50(没有包括shortcut)</p><p>model for adaptation: ExtractorHead(<br>  (ext): ResNet(<br>    (conv1): Conv2d(3, 64, kernel_size=(3, 3), stride=(1, 1), padding=(1, 1), bias=False)<br>    (bn1): BatchNorm2d(64, eps=1e-05, momentum=0.1, affine=True, track_running_stats=False)<br>    (layer1): Sequential(<br>      (0): Bottleneck(<br>        (conv1): Conv2d(64, 64, kernel_size=(1, 1), stride=(1, 1), bias=False)<br>        (bn1): BatchNorm2d(64, eps=1e-05, momentum=0.1, affine=True, track_running_stats=False)<br>        (conv2): Conv2d(64, 64, kernel_size=(3, 3), stride=(1, 1), padding=(1, 1), bias=False)<br>        (bn2): BatchNorm2d(64, eps=1e-05, momentum=0.1, affine=True, track_running_stats=False)<br>        (conv3): Conv2d(64, 256, kernel_size=(1, 1), stride=(1, 1), bias=False)<br>        (bn3): BatchNorm2d(256, eps=1e-05, momentum=0.1, affine=True, track_running_stats=False)<br>        (shortcut): Sequential(<br>          (0): Conv2d(64, 256, kernel_size=(1, 1), stride=(1, 1), bias=False)<br>          (1): BatchNorm2d(256, eps=1e-05, momentum=0.1, affine=True, track_running_stats=False)<br>        )<br>      )<br>      (1): Bottleneck(<br>        (conv1): Conv2d(256, 64, kernel_size=(1, 1), stride=(1, 1), bias=False)<br>        (bn1): BatchNorm2d(64, eps=1e-05, momentum=0.1, affine=True, track_running_stats=False)<br>        (conv2): Conv2d(64, 64, kernel_size=(3, 3), stride=(1, 1), padding=(1, 1), bias=False)<br>        (bn2): BatchNorm2d(64, eps=1e-05, momentum=0.1, affine=True, track_running_stats=False)<br>        (conv3): Conv2d(64, 256, kernel_size=(1, 1), stride=(1, 1), bias=False)<br>        (bn3): BatchNorm2d(256, eps=1e-05, momentum=0.1, affine=True, track_running_stats=False)<br>        (shortcut): Sequential()<br>      )<br>      (2): Bottleneck(<br>        (conv1): Conv2d(256, 64, kernel_size=(1, 1), stride=(1, 1), bias=False)<br>        (bn1): BatchNorm2d(64, eps=1e-05, momentum=0.1, affine=True, track_running_stats=False)<br>        (conv2): Conv2d(64, 64, kernel_size=(3, 3), stride=(1, 1), padding=(1, 1), bias=False)<br>        (bn2): BatchNorm2d(64, eps=1e-05, momentum=0.1, affine=True, track_running_stats=False)<br>        (conv3): Conv2d(64, 256, kernel_size=(1, 1), stride=(1, 1), bias=False)<br>        (bn3): BatchNorm2d(256, eps=1e-05, momentum=0.1, affine=True, track_running_stats=False)<br>        (shortcut): Sequential()<br>      )<br>    )<br>    (layer2): Sequential(<br>      (0): Bottleneck(<br>        (conv1): Conv2d(256, 128, kernel_size=(1, 1), stride=(1, 1), bias=False)<br>        (bn1): BatchNorm2d(128, eps=1e-05, momentum=0.1, affine=True, track_running_stats=False)<br>        (conv2): Conv2d(128, 128, kernel_size=(3, 3), stride=(2, 2), padding=(1, 1), bias=False)<br>        (bn2): BatchNorm2d(128, eps=1e-05, momentum=0.1, affine=True, track_running_stats=False)<br>        (conv3): Conv2d(128, 512, kernel_size=(1, 1), stride=(1, 1), bias=False)<br>        (bn3): BatchNorm2d(512, eps=1e-05, momentum=0.1, affine=True, track_running_stats=False)<br>        (shortcut): Sequential(<br>          (0): Conv2d(256, 512, kernel_size=(1, 1), stride=(2, 2), bias=False)<br>          (1): BatchNorm2d(512, eps=1e-05, momentum=0.1, affine=True, track_running_stats=False)<br>        )<br>      )<br>      (1): Bottleneck(<br>        (conv1): Conv2d(512, 128, kernel_size=(1, 1), stride=(1, 1), bias=False)<br>        (bn1): BatchNorm2d(128, eps=1e-05, momentum=0.1, affine=True, track_running_stats=False)<br>        (conv2): Conv2d(128, 128, kernel_size=(3, 3), stride=(1, 1), padding=(1, 1), bias=False)<br>        (bn2): BatchNorm2d(128, eps=1e-05, momentum=0.1, affine=True, track_running_stats=False)<br>        (conv3): Conv2d(128, 512, kernel_size=(1, 1), stride=(1, 1), bias=False)<br>        (bn3): BatchNorm2d(512, eps=1e-05, momentum=0.1, affine=True, track_running_stats=False)<br>        (shortcut): Sequential()<br>      )<br>      (2): Bottleneck(<br>        (conv1): Conv2d(512, 128, kernel_size=(1, 1), stride=(1, 1), bias=False)<br>        (bn1): BatchNorm2d(128, eps=1e-05, momentum=0.1, affine=True, track_running_stats=False)<br>        (conv2): Conv2d(128, 128, kernel_size=(3, 3), stride=(1, 1), padding=(1, 1), bias=False)<br>        (bn2): BatchNorm2d(128, eps=1e-05, momentum=0.1, affine=True, track_running_stats=False)<br>        (conv3): Conv2d(128, 512, kernel_size=(1, 1), stride=(1, 1), bias=False)<br>        (bn3): BatchNorm2d(512, eps=1e-05, momentum=0.1, affine=True, track_running_stats=False)<br>        (shortcut): Sequential()<br>      )<br>      (3): Bottleneck(<br>        (conv1): Conv2d(512, 128, kernel_size=(1, 1), stride=(1, 1), bias=False)<br>        (bn1): BatchNorm2d(128, eps=1e-05, momentum=0.1, affine=True, track_running_stats=False)<br>        (conv2): Conv2d(128, 128, kernel_size=(3, 3), stride=(1, 1), padding=(1, 1), bias=False)<br>        (bn2): BatchNorm2d(128, eps=1e-05, momentum=0.1, affine=True, track_running_stats=False)<br>        (conv3): Conv2d(128, 512, kernel_size=(1, 1), stride=(1, 1), bias=False)<br>        (bn3): BatchNorm2d(512, eps=1e-05, momentum=0.1, affine=True, track_running_stats=False)<br>        (shortcut): Sequential()<br>      )<br>    )<br>    (layer3): Sequential(<br>      (0): Bottleneck(<br>        (conv1): Conv2d(512, 256, kernel_size=(1, 1), stride=(1, 1), bias=False)<br>        (bn1): BatchNorm2d(256, eps=1e-05, momentum=0.1, affine=True, track_running_stats=False)<br>        (conv2): Conv2d(256, 256, kernel_size=(3, 3), stride=(2, 2), padding=(1, 1), bias=False)<br>        (bn2): BatchNorm2d(256, eps=1e-05, momentum=0.1, affine=True, track_running_stats=False)<br>        (conv3): Conv2d(256, 1024, kernel_size=(1, 1), stride=(1, 1), bias=False)<br>        (bn3): BatchNorm2d(1024, eps=1e-05, momentum=0.1, affine=True, track_running_stats=False)<br>        (shortcut): Sequential(<br>          (0): Conv2d(512, 1024, kernel_size=(1, 1), stride=(2, 2), bias=False)<br>          (1): BatchNorm2d(1024, eps=1e-05, momentum=0.1, affine=True, track_running_stats=False)<br>        )<br>      )<br>      (1): Bottleneck(<br>        (conv1): Conv2d(1024, 256, kernel_size=(1, 1), stride=(1, 1), bias=False)<br>        (bn1): BatchNorm2d(256, eps=1e-05, momentum=0.1, affine=True, track_running_stats=False)<br>        (conv2): Conv2d(256, 256, kernel_size=(3, 3), stride=(1, 1), padding=(1, 1), bias=False)<br>        (bn2): BatchNorm2d(256, eps=1e-05, momentum=0.1, affine=True, track_running_stats=False)<br>        (conv3): Conv2d(256, 1024, kernel_size=(1, 1), stride=(1, 1), bias=False)<br>        (bn3): BatchNorm2d(1024, eps=1e-05, momentum=0.1, affine=True, track_running_stats=False)<br>        (shortcut): Sequential()<br>      )<br>      (2): Bottleneck(<br>        (conv1): Conv2d(1024, 256, kernel_size=(1, 1), stride=(1, 1), bias=False)<br>        (bn1): BatchNorm2d(256, eps=1e-05, momentum=0.1, affine=True, track_running_stats=False)<br>        (conv2): Conv2d(256, 256, kernel_size=(3, 3), stride=(1, 1), padding=(1, 1), bias=False)<br>        (bn2): BatchNorm2d(256, eps=1e-05, momentum=0.1, affine=True, track_running_stats=False)<br>        (conv3): Conv2d(256, 1024, kernel_size=(1, 1), stride=(1, 1), bias=False)<br>        (bn3): BatchNorm2d(1024, eps=1e-05, momentum=0.1, affine=True, track_running_stats=False)<br>        (shortcut): Sequential()<br>      )<br>      (3): Bottleneck(<br>        (conv1): Conv2d(1024, 256, kernel_size=(1, 1), stride=(1, 1), bias=False)<br>        (bn1): BatchNorm2d(256, eps=1e-05, momentum=0.1, affine=True, track_running_stats=False)<br>        (conv2): Conv2d(256, 256, kernel_size=(3, 3), stride=(1, 1), padding=(1, 1), bias=False)<br>        (bn2): BatchNorm2d(256, eps=1e-05, momentum=0.1, affine=True, track_running_stats=False)<br>        (conv3): Conv2d(256, 1024, kernel_size=(1, 1), stride=(1, 1), bias=False)<br>        (bn3): BatchNorm2d(1024, eps=1e-05, momentum=0.1, affine=True, track_running_stats=False)<br>        (shortcut): Sequential()<br>      )<br>      (4): Bottleneck(<br>        (conv1): Conv2d(1024, 256, kernel_size=(1, 1), stride=(1, 1), bias=False)<br>        (bn1): BatchNorm2d(256, eps=1e-05, momentum=0.1, affine=True, track_running_stats=False)<br>        (conv2): Conv2d(256, 256, kernel_size=(3, 3), stride=(1, 1), padding=(1, 1), bias=False)<br>        (bn2): BatchNorm2d(256, eps=1e-05, momentum=0.1, affine=True, track_running_stats=False)<br>        (conv3): Conv2d(256, 1024, kernel_size=(1, 1), stride=(1, 1), bias=False)<br>        (bn3): BatchNorm2d(1024, eps=1e-05, momentum=0.1, affine=True, track_running_stats=False)<br>        (shortcut): Sequential()<br>      )<br>      (5): Bottleneck(<br>        (conv1): Conv2d(1024, 256, kernel_size=(1, 1), stride=(1, 1), bias=False)<br>        (bn1): BatchNorm2d(256, eps=1e-05, momentum=0.1, affine=True, track_running_stats=False)<br>        (conv2): Conv2d(256, 256, kernel_size=(3, 3), stride=(1, 1), padding=(1, 1), bias=False)<br>        (bn2): BatchNorm2d(256, eps=1e-05, momentum=0.1, affine=True, track_running_stats=False)<br>        (conv3): Conv2d(256, 1024, kernel_size=(1, 1), stride=(1, 1), bias=False)<br>        (bn3): BatchNorm2d(1024, eps=1e-05, momentum=0.1, affine=True, track_running_stats=False)<br>        (shortcut): Sequential()<br>      )<br>    )<br>    (layer4): Sequential(<br>      (0): Bottleneck(<br>        (conv1): Conv2d(1024, 512, kernel_size=(1, 1), stride=(1, 1), bias=False)<br>        (bn1): BatchNorm2d(512, eps=1e-05, momentum=0.1, affine=True, track_running_stats=False)<br>        (conv2): Conv2d(512, 512, kernel_size=(3, 3), stride=(2, 2), padding=(1, 1), bias=False)<br>        (bn2): BatchNorm2d(512, eps=1e-05, momentum=0.1, affine=True, track_running_stats=False)<br>        (conv3): Conv2d(512, 2048, kernel_size=(1, 1), stride=(1, 1), bias=False)<br>        (bn3): BatchNorm2d(2048, eps=1e-05, momentum=0.1, affine=True, track_running_stats=False)<br>        (shortcut): Sequential(<br>          (0): Conv2d(1024, 2048, kernel_size=(1, 1), stride=(2, 2), bias=False)<br>          (1): BatchNorm2d(2048, eps=1e-05, momentum=0.1, affine=True, track_running_stats=False)<br>        )<br>      )<br>      (1): Bottleneck(<br>        (conv1): Conv2d(2048, 512, kernel_size=(1, 1), stride=(1, 1), bias=False)<br>        (bn1): BatchNorm2d(512, eps=1e-05, momentum=0.1, affine=True, track_running_stats=False)<br>        (conv2): Conv2d(512, 512, kernel_size=(3, 3), stride=(1, 1), padding=(1, 1), bias=False)<br>        (bn2): BatchNorm2d(512, eps=1e-05, momentum=0.1, affine=True, track_running_stats=False)<br>        (conv3): Conv2d(512, 2048, kernel_size=(1, 1), stride=(1, 1), bias=False)<br>        (bn3): BatchNorm2d(2048, eps=1e-05, momentum=0.1, affine=True, track_running_stats=False)<br>        (shortcut): Sequential()<br>      )<br>      (2): Bottleneck(<br>        (conv1): Conv2d(2048, 512, kernel_size=(1, 1), stride=(1, 1), bias=False)<br>        (bn1): BatchNorm2d(512, eps=1e-05, momentum=0.1, affine=True, track_running_stats=False)<br>        (conv2): Conv2d(512, 512, kernel_size=(3, 3), stride=(1, 1), padding=(1, 1), bias=False)<br>        (bn2): BatchNorm2d(512, eps=1e-05, momentum=0.1, affine=True, track_running_stats=False)<br>        (conv3): Conv2d(512, 2048, kernel_size=(1, 1), stride=(1, 1), bias=False)<br>        (bn3): BatchNorm2d(2048, eps=1e-05, momentum=0.1, affine=True, track_running_stats=False)<br>        (shortcut): Sequential()<br>      )<br>    )<br>    (avgpool): AdaptiveAvgPool2d(output_size=(1, 1))<br>  )<br>  (head): LinearClassifier(<br>    (fc): Linear(in_features=2048, out_features=10, bias=True)<br>  )<br>)</p>]]></content>
    
    
    <summary type="html">ext
ext.conv1
ext.bn1
ext.layer1
ext.layer1.0
ext.layer1.0.conv1
ext.layer1.0.bn1
ext.layer1.0.conv2
ext.layer1.0.bn2
ext.layer1.0.conv3
ext.layer1.0.bn3
ext.layer1.0.shortcut
ext.layer1.0.shortcut.0
ext.layer1.0.shortcut.1
ext.layer1.1
ext.layer1.1.conv1
ext.layer1.1.bn1
ext.layer1.1.conv2
…
.layer3.0.conv1<br>module.layer3.0.bn1<br>module.layer3.0.conv2<br>module.layer3.0.bn2<br>module.layer3.0.shortcut<br>module.layer3.1<br>module.layer3.1.conv1<br>module.layer3.1.bn1<br>module.layer3.1.conv2<br>module.layer3.1.bn2<br>module.layer3.1.shortcut<br>module.layer3.2<br>module.layer3.2.conv1<br>module.layer3.2.bn1<br>module.layer3.2.conv2<br>module.layer3.2.bn2<br>module.layer3.2.shortcut<br>module.layer3.3<br>module.layer3.3.conv1<br>module.layer3.3.bn1<br>module.layer3.3.conv2<br>module.layer3.3.bn2<br>module.layer3.3.shortcut<br>module.linear</p><pre><code>(module): ResNet(  (conv1): Conv2d(3, 16, kernel_size=(3, 3), stride=(1, 1), padding=(1, 1), bias=False)  (bn1): BatchNorm2d(16, eps=1e-05, momentum=0.1, affine=True, track_running_stats=False)  (layer1): Sequential(    (0): BasicBlock(      (conv1): Conv2d(16, 16, kernel_size=(3, 3), stride=(1, 1), padding=(1, 1), bias=False)      (bn1): BatchNorm2d(16, eps=1e-05, momentum=0.1, affine=True, track_running_stats=False)      (conv2): Conv2d(16, 16, kernel_size=(3, 3), stride=(1, 1), padding=(1, 1), bias=False)      (bn2): BatchNorm2d(16, eps=1e-05, momentum=0.1, affine=True, track_running_stats=False)      (shortcut): Sequential()    )    (1): BasicBlock(      (conv1): Conv2d(16, 16, kernel_size=(3, 3), stride=(1, 1), padding=(1, 1), bias=False)      (bn1): BatchNorm2d(16, eps=1e-05, momentum=0.1, affine=True, track_running_stats=False)      (conv2): Conv2d(16, 16, kernel_size=(3, 3), stride=(1, 1), padding=(1, 1), bias=False)      (bn2): BatchNorm2d(16, eps=1e-05, momentum=0.1, affine=True, track_running_stats=False)      (shortcut): Sequential()    )    (2): BasicBlock(      (conv1): Conv2d(16, 16, kernel_size=(3, 3), stride=(1, 1), padding=(1, 1), bias=False)      (bn1): BatchNorm2d(16, eps=1e-05, momentum=0.1, affine=True, track_running_stats=False)      (conv2): Conv2d(16, 16, kernel_size=(3, 3), stride=(1, 1), padding=(1, 1), bias=False)      (bn2): BatchNorm2d(16, eps=1e-05, momentum=0.1, affine=True, track_running_stats=False)      (shortcut): Sequential()    )    (3): BasicBlock(      (conv1): Conv2d(16, 16, kernel_size=(3, 3), stride=(1, 1), padding=(1, 1), bias=False)      (bn1): BatchNorm2d(16, eps=1e-05, momentum=0.1, affine=True, track_running_stats=False)      (conv2): Conv2d(16, 16, kernel_size=(3, 3), stride=(1, 1), padding=(1, 1), bias=False)      (bn2): BatchNorm2d(16, eps=1e-05, momentum=0.1, affine=True, track_running_stats=False)      (shortcut): Sequential()    )  )  (layer2): Sequential(    (0): BasicBlock(      (conv1): Conv2d(16, 32, kernel_size=(3, 3), stride=(2, 2), padding=(1, 1), bias=False)      (bn1): BatchNorm2d(32, eps=1e-05, momentum=0.1, affine=True, track_running_stats=False)      (conv2): Conv2d(32, 32, kernel_size=(3, 3), stride=(1, 1), padding=(1, 1), bias=False)      (bn2): BatchNorm2d(32, eps=1e-05, momentum=0.1, affine=True, track_running_stats=False)      (shortcut): LambdaLayer()    )    (1): BasicBlock(      (conv1): Conv2d(32, 32, kernel_size=(3, 3), stride=(1, 1), padding=(1, 1), bias=False)      (bn1): BatchNorm2d(32, eps=1e-05, momentum=0.1, affine=True, track_running_stats=False)      (conv2): Conv2d(32, 32, kernel_size=(3, 3), stride=(1, 1), padding=(1, 1), bias=False)      (bn2): BatchNorm2d(32, eps=1e-05, momentum=0.1, affine=True, track_running_stats=False)      (shortcut): Sequential()    )    (2): BasicBlock(      (conv1): Conv2d(32, 32, kernel_size=(3, 3), stride=(1, 1), padding=(1, 1), bias=False)      (bn1): BatchNorm2d(32, eps=1e-05, momentum=0.1, affine=True, track_running_stats=False)      (conv2): Conv2d(32, 32, kernel_size=(3, 3), stride=(1, 1), padding=(1, 1), bias=False)      (bn2): BatchNorm2d(32, eps=1e-05, momentum=0.1, affine=True, track_running_stats=False)      (shortcut): Sequential()    )    (3): BasicBlock(      (conv1): Conv2d(32, 32, kernel_size=(3, 3), stride=(1, 1), padding=(1, 1), bias=False)      (bn1): BatchNorm2d(32, eps=1e-05, momentum=0.1, affine=True, track_running_stats=False)      (conv2): Conv2d(32, 32, kernel_size=(3, 3), stride=(1, 1), padding=(1, 1), bias=False)      (bn2): BatchNorm2d(32, eps=1e-05, momentum=0.1, affine=True, track_running_stats=False)      (shortcut): Sequential()    )  )  (layer3): Sequential(    (0): BasicBlock(      (conv1): Conv2d(32, 64, kernel_size=(3, 3), stride=(2, 2), padding=(1, 1), bias=False)      (bn1): BatchNorm2d(64, eps=1e-05, momentum=0.1, affine=True, track_running_stats=False)      (conv2): Conv2d(64, 64, kernel_size=(3, 3), stride=(1, 1), padding=(1, 1), bias=False)      (bn2): BatchNorm2d(64, eps=1e-05, momentum=0.1, affine=True, track_running_stats=False)      (shortcut): LambdaLayer()    )    (1): BasicBlock(      (conv1): Conv2d(64, 64, kernel_size=(3, 3), stride=(1, 1), padding=(1, 1), bias=False)      (bn1): BatchNorm2d(64, eps=1e-05, momentum=0.1, affine=True, track_running_stats=False)      (conv2): Conv2d(64, 64, kernel_size=(3, 3), stride=(1, 1), padding=(1, 1), bias=False)      (bn2): BatchNorm2d(64, eps=1e-05, momentum=0.1, affine=True, track_running_stats=False)      (shortcut): Sequential()    )    (2): BasicBlock(      (conv1): Conv2d(64, 64, kernel_size=(3, 3), stride=(1, 1), padding=(1, 1), bias=False)      (bn1): BatchNorm2d(64, eps=1e-05, momentum=0.1, affine=True, track_running_stats=False)      (conv2): Conv2d(64, 64, kernel_size=(3, 3), stride=(1, 1), padding=(1, 1), bias=False)      (bn2): BatchNorm2d(64, eps=1e-05, momentum=0.1, affine=True, track_running_stats=False)      (shortcut): Sequential()    )    (3): BasicBlock(      (conv1): Conv2d(64, 64, kernel_size=(3, 3), stride=(1, 1), padding=(1, 1), bias=False)      (bn1): BatchNorm2d(64, eps=1e-05, momentum=0.1, affine=True, track_running_stats=False)      (conv2): Conv2d(64, 64, kernel_size=(3, 3), stride=(1, 1), padding=(1, 1), bias=False)      (bn2): BatchNorm2d(64, eps=1e-05, momentum=0.1, affine=True, track_running_stats=False)      (shortcut): Sequential()    )  )  (linear): Linear(in_features=64, out_features=10, bias=True))</code></pre>]]></content>
    
    
    <summary type="html">module.conv1
module.bn1
module.layer1
module.layer1.0
module.layer1.0.conv1
module.layer1.0.bn1
module.layer1.0.conv2
module.layer1.0.bn2
module.layer1.0.shortcut
module.layer1.1
module.layer1.1.conv1
module.layer1.1.bn1
module.layer1.1.conv2
module.layer1.1.bn2
module.layer1.1.shortcut
module.layer</summary>
…
tcut<br>block3.layer.1<br>block3.layer.1.bn1<br>block3.layer.1.relu1<br>block3.layer.1.conv1<br>block3.layer.1.bn2<br>block3.layer.1.relu2<br>block3.layer.1.conv2<br>block3.layer.2<br>block3.layer.2.bn1<br>block3.layer.2.relu1<br>block3.layer.2.conv1<br>block3.layer.2.bn2<br>block3.layer.2.relu2<br>block3.layer.2.conv2<br>block3.layer.3<br>block3.layer.3.bn1<br>block3.layer.3.relu1<br>block3.layer.3.conv1<br>block3.layer.3.bn2<br>block3.layer.3.relu2<br>block3.layer.3.conv2<br>bn1<br>relu<br>fc</p><p>[23/02/14 17:17:35] [cifar10c_offline.py:  259]: model for adaptation: WideResNet(<br>  (conv1): Conv2d(3, 16, kernel_size=(3, 3), stride=(1, 1), padding=(1, 1), bias=False)<br>  (block1): NetworkBlock(<br>    (layer): Sequential(<br>      (0): BasicBlock(<br>        (bn1): BatchNorm2d(16, eps=1e-05, momentum=0.1, affine=True, track_running_stats=False)<br>        (relu1): ReLU(inplace=True)<br>        (conv1): Conv2d(16, 160, kernel_size=(3, 3), stride=(1, 1), padding=(1, 1), bias=False)<br>        (bn2): BatchNorm2d(160, eps=1e-05, momentum=0.1, affine=True, track_running_stats=False)<br>        (relu2): ReLU(inplace=True)<br>        (conv2): Conv2d(160, 160, kernel_size=(3, 3), stride=(1, 1), padding=(1, 1), bias=False)<br>        (convShortcut): Conv2d(16, 160, kernel_size=(1, 1), stride=(1, 1), bias=False)<br>      )<br>      (1): BasicBlock(<br>        (bn1): BatchNorm2d(160, eps=1e-05, momentum=0.1, affine=True, track_running_stats=False)<br>        (relu1): ReLU(inplace=True)<br>        (conv1): Conv2d(160, 160, kernel_size=(3, 3), stride=(1, 1), padding=(1, 1), bias=False)<br>        (bn2): BatchNorm2d(160, eps=1e-05, momentum=0.1, affine=True, track_running_stats=False)<br>        (relu2): ReLU(inplace=True)<br>        (conv2): Conv2d(160, 160, kernel_size=(3, 3), stride=(1, 1), padding=(1, 1), bias=False)<br>      )<br>      (2): BasicBlock(<br>        (bn1): BatchNorm2d(160, eps=1e-05, momentum=0.1, affine=True, track_running_stats=False)<br>        (relu1): ReLU(inplace=True)<br>        (conv1): Conv2d(160, 160, kernel_size=(3, 3), stride=(1, 1), padding=(1, 1), bias=False)<br>        (bn2): BatchNorm2d(160, eps=1e-05, momentum=0.1, affine=True, track_running_stats=False)<br>        (relu2): ReLU(inplace=True)<br>        (conv2): Conv2d(160, 160, kernel_size=(3, 3), stride=(1, 1), padding=(1, 1), bias=False)<br>      )<br>      (3): BasicBlock(<br>        (bn1): BatchNorm2d(160, eps=1e-05, momentum=0.1, affine=True, track_running_stats=False)<br>        (relu1): ReLU(inplace=True)<br>        (conv1): Conv2d(160, 160, kernel_size=(3, 3), stride=(1, 1), padding=(1, 1), bias=False)<br>        (bn2): BatchNorm2d(160, eps=1e-05, momentum=0.1, affine=True, track_running_stats=False)<br>        (relu2): ReLU(inplace=True)<br>        (conv2): Conv2d(160, 160, kernel_size=(3, 3), stride=(1, 1), padding=(1, 1), bias=False)<br>      )<br>    )<br>  )<br>  (block2): NetworkBlock(<br>    (layer): Sequential(<br>      (0): BasicBlock(<br>        (bn1): BatchNorm2d(160, eps=1e-05, momentum=0.1, affine=True, track_running_stats=False)<br>        (relu1): ReLU(inplace=True)<br>        (conv1): Conv2d(160, 320, kernel_size=(3, 3), stride=(2, 2), padding=(1, 1), bias=False)<br>        (bn2): BatchNorm2d(320, eps=1e-05, momentum=0.1, affine=True, track_running_stats=False)<br>        (relu2): ReLU(inplace=True)<br>        (conv2): Conv2d(320, 320, kernel_size=(3, 3), stride=(1, 1), padding=(1, 1), bias=False)<br>        (convShortcut): Conv2d(160, 320, kernel_size=(1, 1), stride=(2, 2), bias=False)<br>      )<br>      (1): BasicBlock(<br>        (bn1): BatchNorm2d(320, eps=1e-05, momentum=0.1, affine=True, track_running_stats=False)<br>        (relu1): ReLU(inplace=True)<br>        (conv1): Conv2d(320, 320, kernel_size=(3, 3), stride=(1, 1), padding=(1, 1), bias=False)<br>        (bn2): BatchNorm2d(320, eps=1e-05, momentum=0.1, affine=True, track_running_stats=False)<br>        (relu2): ReLU(inplace=True)<br>        (conv2): Conv2d(320, 320, kernel_size=(3, 3), stride=(1, 1), padding=(1, 1), bias=False)<br>      )<br>      (2): BasicBlock(<br>        (bn1): BatchNorm2d(320, eps=1e-05, momentum=0.1, affine=True, track_running_stats=False)<br>        (relu1): ReLU(inplace=True)<br>        (conv1): Conv2d(320, 320, kernel_size=(3, 3), stride=(1, 1), padding=(1, 1), bias=False)<br>        (bn2): BatchNorm2d(320, eps=1e-05, momentum=0.1, affine=True, track_running_stats=False)<br>        (relu2): ReLU(inplace=True)<br>        (conv2): Conv2d(320, 320, kernel_size=(3, 3), stride=(1, 1), padding=(1, 1), bias=False)<br>      )<br>      (3): BasicBlock(<br>        (bn1): BatchNorm2d(320, eps=1e-05, momentum=0.1, affine=True, track_running_stats=False)<br>        (relu1): ReLU(inplace=True)<br>        (conv1): Conv2d(320, 320, kernel_size=(3, 3), stride=(1, 1), padding=(1, 1), bias=False)<br>        (bn2): BatchNorm2d(320, eps=1e-05, momentum=0.1, affine=True, track_running_stats=False)<br>        (relu2): ReLU(inplace=True)<br>        (conv2): Conv2d(320, 320, kernel_size=(3, 3), stride=(1, 1), padding=(1, 1), bias=False)<br>      )<br>    )<br>  )<br>  (block3): NetworkBlock(<br>    (layer): Sequential(<br>      (0): BasicBlock(<br>        (bn1): BatchNorm2d(320, eps=1e-05, momentum=0.1, affine=True, track_running_stats=False)<br>        (relu1): ReLU(inplace=True)<br>        (conv1): Conv2d(320, 640, kernel_size=(3, 3), stride=(2, 2), padding=(1, 1), bias=False)<br>        (bn2): BatchNorm2d(640, eps=1e-05, momentum=0.1, affine=True, track_running_stats=False)<br>        (relu2): ReLU(inplace=True)<br>        (conv2): Conv2d(640, 640, kernel_size=(3, 3), stride=(1, 1), padding=(1, 1), bias=False)<br>        (convShortcut): Conv2d(320, 640, kernel_size=(1, 1), stride=(2, 2), bias=False)<br>      )<br>      (1): BasicBlock(<br>        (bn1): BatchNorm2d(640, eps=1e-05, momentum=0.1, affine=True, track_running_stats=False)<br>        (relu1): ReLU(inplace=True)<br>        (conv1): Conv2d(640, 640, kernel_size=(3, 3), stride=(1, 1), padding=(1, 1), bias=False)<br>        (bn2): BatchNorm2d(640, eps=1e-05, momentum=0.1, affine=True, track_running_stats=False)<br>        (relu2): ReLU(inplace=True)<br>        (conv2): Conv2d(640, 640, kernel_size=(3, 3), stride=(1, 1), padding=(1, 1), bias=False)<br>      )<br>      (2): BasicBlock(<br>        (bn1): BatchNorm2d(640, eps=1e-05, momentum=0.1, affine=True, track_running_stats=False)<br>        (relu1): ReLU(inplace=True)<br>        (conv1): Conv2d(640, 640, kernel_size=(3, 3), stride=(1, 1), padding=(1, 1), bias=False)<br>        (bn2): BatchNorm2d(640, eps=1e-05, momentum=0.1, affine=True, track_running_stats=False)<br>        (relu2): ReLU(inplace=True)<br>        (conv2): Conv2d(640, 640, kernel_size=(3, 3), stride=(1, 1), padding=(1, 1), bias=False)<br>      )<br>      (3): BasicBlock(<br>        (bn1): BatchNorm2d(640, eps=1e-05, momentum=0.1, affine=True, track_running_stats=False)<br>        (relu1): ReLU(inplace=True)<br>        (conv1): Conv2d(640, 640, kernel_size=(3, 3), stride=(1, 1), padding=(1, 1), bias=False)<br>        (bn2): BatchNorm2d(640, eps=1e-05, momentum=0.1, affine=True, track_running_stats=False)<br>        (relu2): ReLU(inplace=True)<br>        (conv2): Conv2d(640, 640, kernel_size=(3, 3), stride=(1, 1), padding=(1, 1), bias=False)<br>      )<br>    )<br>  )<br>  (bn1): BatchNorm2d(640, eps=1e-05, momentum=0.1, affine=True, track_running_stats=False)<br>  (relu): ReLU(inplace=True)<br>  (fc): Linear(in_features=640, out_features=10, bias=True)<br>)<br>[23/0</p>]]></content>
    
    
    <summary type="html">WRN-28-10


conv1
block1
block1.layer
block1.layer.0
block1.layer.0.bn1
block1.layer.0.relu1
block1.layer.0.conv1
block1.layer.0.bn2
block1.layer.0.relu2
block1.layer.0.conv2
block1.layer.0.convShortcut
block1.layer.1
block1.layer.1.bn1
block1.layer.1.relu1
block1.layer.1.conv1
block1.layer.1.bn2
…
